…
net: "train_onet.prototxt"
train_state {
  level: 0
  stage: ""
}
I0920 22:47:28.732055  3264 solver.cpp:102] Creating training net from net file: train_onet.prototxt
I0920 22:47:28.732592  3264 net.cpp:51] Initializing net from parameters: 
name: "ONet"
state {
  phase: TRAIN
  level: 0
  stage: ""
}
layer {
  name: "PyData"
  type: "Python"
  top: "data"
  top: "label"
  top: "bbox"
  top: "landmark"
  python_param {
    module: "pydata_layer_multidb"
    layer: "MtcnnDataLayer"
    param_str: "{\'batch_size\': 384, \'net_type\': \'onet\'}"
  }
}
layer {
  name: "conv1"
  type: "Convolution"
  bottom: "data"
  top: "conv1"
  param {
    lr_mult: 1
    decay_mult: 1
  }
  param {
    lr_mult: 2
    decay_mult: 1
  }
  convolution_param {
    num_output: 32
    kernel_size: 3
    stride: 1
    weight_filler {
      type: "xavier"
    }
    bias_filler {
      type: "constant"
      value: 0
    }
  }
}
layer {
  name: "prelu1"
  type: "PReLU"
  bottom: "conv1"
  top: "conv1"
}
layer {
  name: "pool1"
  type: "Pooling"
  bottom: "conv1"
  top: "pool1"
  pooling_param {
    pool: MAX
    kernel_size: 3
    stride: 2
  }
}
layer {
  name: "conv2"
  type: "Convolution"
  bottom: "pool1"
  top: "conv2"
  param {
    lr_mult: 1
    decay_mult: 1
  }
  param {
    lr_mult: 2
    decay_mult: 1
  }
  convolution_param {
    num_output: 64
    kernel_size: 3
    stride: 1
    weight_filler {
      type: "xavier"
    }
    bias_filler {
      type: "constant"
      value: 0
    }
  }
}
layer {
  name: "prelu2"
  type: "PReLU"
  bottom: "conv2"
  top: "conv2"
}
layer {
  name: "pool2"
  type: "Pooling"
  bottom: "conv2"
  top: "pool2"
  pooling_param {
    pool: MAX
    kernel_size: 3
    stride: 2
  }
}
layer {
  name: "conv3"
  type: "Convolution"
  bottom: "pool2"
  top: "conv3"
  param {
    lr_mult: 1
    decay_mult: 1
  }
  param {
    lr_mult: 2
    decay_mult: 1
  }
  convolution_param {
    num_output: 64
    kernel_size: 3
    weight_filler {
      type: "xavier"
    }
    bias_filler {
      type: "constant"
      value: 0
    }
  }
}
layer {
  name: "prelu3"
  type: "PReLU"
  bottom: "conv3"
  top: "conv3"
}
layer {
  name: "pool3"
  type: "Pooling"
  bottom: "conv3"
  top: "pool3"
  pooling_param {
    pool: MAX
    kernel_size: 2
    stride: 2
  }
}
layer {
  name: "conv4"
  type: "Convolution"
  bottom: "pool3"
  top: "conv4"
  param {
    lr_mult: 1
    decay_mult: 1
  }
  param {
    lr_mult: 2
    decay_mult: 1
  }
  convolution_param {
    num_output: 128
    kernel_size: 2
    weight_filler {
      type: "xavier"
    }
    bias_filler {
      type: "constant"
      value: 0
    }
  }
}
layer {
  name: "prelu4"
  type: "PReLU"
  bottom: "conv4"
  top: "conv4"
}
layer {
  name: "conv5"
  type: "InnerProduct"
  bottom: "conv4"
  top: "conv5"
  param {
    lr_mult: 1
    decay_mult: 1
  }
  param {
    lr_mult: 2
    decay_mult: 1
  }
  inner_product_param {
    num_output: 256
    weight_filler {
      type: "xavier"
    }
    bias_filler {
      type: "constant"
      value: 0
    }
  }
}
layer {
  name: "drop5"
  type: "Dropout"
  bottom: "conv5"
  top: "conv5"
  dropout_param {
    dropout_ratio: 0.25
  }
}
layer {
  name: "prelu5"
  type: "PReLU"
  bottom: "conv5"
  top: "conv5"
}
layer {
  name: "conv6-1"
  type: "InnerProduct"
  bottom: "conv5"
  top: "conv6-1"
  param {
    lr_mult: 1
    decay_mult: 1
  }
  param {
    lr_mult: 2
    decay_mult: 1
  }
  inner_product_param {
    num_output: 2
    weight_filler {
      type: "xavier"
    }
    bias_filler {
      type: "constant"
      value: 0
    }
  }
}
layer {
  name: "cls_bridge"
  type: "OftenMtcnnClassBridge"
  bottom: "conv6-1"
  bottom: "label"
  top: "conv6-1-valid"
  top: "label-valid"
  propagate_down: true
  propagate_down: false
}
layer {
  name: "cls_loss"
  type: "OftenMtcnnSoftmaxLoss"
  bottom: "conv6-1-valid"
  bottom: "label-valid"
  top: "cls_loss"
  propagate_down: true
  propagate_down: false
}
layer {
  name: "cls_Acc"
  type: "OftenMtcnnAccuracy"
  bottom: "conv6-1-valid"
  bottom: "label-valid"
  top: "cls_Acc"
  include {
    phase: TRAIN
  }
}
layer {
  name: "conv6-2"
  type: "InnerProduct"
  bottom: "conv5"
  top: "conv6-2"
  param {
    lr_mult: 1
    decay_mult: 1
  }
  param {
    lr_mult: 2
    decay_mult: 1
  }
  inner_product_param {
    num_output: 4
    weight_filler {
      type: "xavier"
    }
    bias_filler {
      type: "constant"
      value: 0
    }
  }
}
layer {
  name: "bbox_loss"
  type: "OftenMtcnnEuclideanLoss"
  bottom: "conv6-2"
  bottom: "bbox"
  bottom: "label"
  top: "bbox_loss"
  loss_weight: 0.5
  propagate_down: true
  propagate_down: false
  propagate_down: false
}
layer {
  name: "conv6-3"
  type: "InnerProduct"
  bottom: "conv5"
  top: "conv6-3"
  param {
    lr_mult: 1
    decay_mult: 1
  }
  param {
    lr_mult: 2
    decay_mult: 1
  }
  inner_product_param {
    num_output: 10
    weight_filler {
      type: "xavier"
    }
    bias_filler {
      type: "constant"
      value: 0
    }
  }
}
layer {
  name: "landmark_loss"
  type: "OftenMtcnnLandMarkLoss"
  bottom: "conv6-3"
  bottom: "landmark"
  bottom: "label"
  top: "landmark_loss"
  loss_weight: 1
  propagate_down: true
  propagate_down: false
  propagate_down: false
}
I0920 22:47:28.733198  3264 layer_factory.hpp:78] Creating layer PyData
I0920 22:47:29.488750  3264 net.cpp:84] Creating Layer PyData
I0920 22:47:29.488795  3264 net.cpp:380] PyData -> data
I0920 22:47:29.488952  3264 net.cpp:380] PyData -> label
I0920 22:47:29.488991  3264 net.cpp:380] PyData -> bbox
I0920 22:47:29.489013  3264 net.cpp:380] PyData -> landmark
I0920 22:47:29.504902  3264 net.cpp:122] Setting up PyData
I0920 22:47:29.504974  3264 net.cpp:129] Top shape: 384 3 48 48 (2654208)
I0920 22:47:29.504984  3264 net.cpp:129] Top shape: 384 (384)
I0920 22:47:29.504989  3264 net.cpp:129] Top shape: 384 4 (1536)
I0920 22:47:29.505000  3264 net.cpp:129] Top shape: 384 10 (3840)
I0920 22:47:29.505003  3264 net.cpp:137] Memory required for data: 10639872
I0920 22:47:29.505045  3264 layer_factory.hpp:78] Creating layer label_PyData_1_split
I0920 22:47:29.505108  3264 net.cpp:84] Creating Layer label_PyData_1_split
I0920 22:47:29.505131  3264 net.cpp:406] label_PyData_1_split <- label
I0920 22:47:29.505183  3264 net.cpp:380] label_PyData_1_split -> label_PyData_1_split_0
I0920 22:47:29.505215  3264 net.cpp:380] label_PyData_1_split -> label_PyData_1_split_1
I0920 22:47:29.505235  3264 net.cpp:380] label_PyData_1_split -> label_PyData_1_split_2
I0920 22:47:29.505271  3264 net.cpp:122] Setting up label_PyData_1_split
I0920 22:47:29.505280  3264 net.cpp:129] Top shape: 384 (384)
I0920 22:47:29.505285  3264 net.cpp:129] Top shape: 384 (384)
I0920 22:47:29.505290  3264 net.cpp:129] Top shape: 384 (384)
I0920 22:47:29.505292  3264 net.cpp:137] Memory required for data: 10644480
I0920 22:47:29.505300  3264 layer_factory.hpp:78] Creating layer conv1
I0920 22:47:29.505345  3264 net.cpp:84] Creating Layer conv1
I0920 22:47:29.505353  3264 net.cpp:406] conv1 <- data
I0920 22:47:29.505369  3264 net.cpp:380] conv1 -> conv1
I0920 22:47:30.019134  3264 cudnn_conv_layer.cpp:194] Reallocating workspace storage: 207012
I0920 22:47:30.019281  3264 net.cpp:122] Setting up conv1
I0920 22:47:30.019309  3264 net.cpp:129] Top shape: 384 32 46 46 (26001408)
I0920 22:47:30.019312  3264 net.cpp:137] Memory required for data: 114650112
I0920 22:47:30.019424  3264 layer_factory.hpp:78] Creating layer prelu1
I0920 22:47:30.019460  3264 net.cpp:84] Creating Layer prelu1
I0920 22:47:30.019472  3264 net.cpp:406] prelu1 <- conv1
I0920 22:47:30.019491  3264 net.cpp:367] prelu1 -> conv1 (in-place)
I0920 22:47:30.019723  3264 net.cpp:122] Setting up prelu1
I0920 22:47:30.019731  3264 net.cpp:129] Top shape: 384 32 46 46 (26001408)
I0920 22:47:30.019734  3264 net.cpp:137] Memory required for data: 218655744
I0920 22:47:30.019773  3264 layer_factory.hpp:78] Creating layer pool1
I0920 22:47:30.019840  3264 net.cpp:84] Creating Layer pool1
I0920 22:47:30.019860  3264 net.cpp:406] pool1 <- conv1
I0920 22:47:30.019872  3264 net.cpp:380] pool1 -> pool1
I0920 22:47:30.019912  3264 net.cpp:122] Setting up pool1
I0920 22:47:30.019920  3264 net.cpp:129] Top shape: 384 32 23 23 (6500352)
I0920 22:47:30.019924  3264 net.cpp:137] Memory required for data: 244657152
I0920 22:47:30.019932  3264 layer_factory.hpp:78] Creating layer conv2
I0920 22:47:30.019951  3264 net.cpp:84] Creating Layer conv2
I0920 22:47:30.019958  3264 net.cpp:406] conv2 <- pool1
I0920 22:47:30.019971  3264 net.cpp:380] conv2 -> conv2
I0920 22:47:30.021373  3264 cudnn_conv_layer.cpp:194] Reallocating workspace storage: 615168
I0920 22:47:30.021508  3264 net.cpp:122] Setting up conv2
I0920 22:47:30.021522  3264 net.cpp:129] Top shape: 384 64 21 21 (10838016)
I0920 22:47:30.021525  3264 net.cpp:137] Memory required for data: 288009216
I0920 22:47:30.021546  3264 layer_factory.hpp:78] Creating layer prelu2
I0920 22:47:30.021562  3264 net.cpp:84] Creating Layer prelu2
I0920 22:47:30.021571  3264 net.cpp:406] prelu2 <- conv2
I0920 22:47:30.021585  3264 net.cpp:367] prelu2 -> conv2 (in-place)
I0920 22:47:30.021689  3264 net.cpp:122] Setting up prelu2
I0920 22:47:30.021698  3264 net.cpp:129] Top shape: 384 64 21 21 (10838016)
I0920 22:47:30.021701  3264 net.cpp:137] Memory required for data: 331361280
I0920 22:47:30.021710  3264 layer_factory.hpp:78] Creating layer pool2
I0920 22:47:30.021721  3264 net.cpp:84] Creating Layer pool2
I0920 22:47:30.021728  3264 net.cpp:406] pool2 <- conv2
I0920 22:47:30.021757  3264 net.cpp:380] pool2 -> pool2
I0920 22:47:30.021793  3264 net.cpp:122] Setting up pool2
I0920 22:47:30.021800  3264 net.cpp:129] Top shape: 384 64 10 10 (2457600)
I0920 22:47:30.021805  3264 net.cpp:137] Memory required for data: 341191680
I0920 22:47:30.021811  3264 layer_factory.hpp:78] Creating layer conv3
I0920 22:47:30.021859  3264 net.cpp:84] Creating Layer conv3
I0920 22:47:30.021867  3264 net.cpp:406] conv3 <- pool2
I0920 22:47:30.021883  3264 net.cpp:380] conv3 -> conv3
I0920 22:47:30.023953  3264 cudnn_conv_layer.cpp:194] Reallocating workspace storage: 1229568
I0920 22:47:30.023973  3264 net.cpp:122] Setting up conv3
I0920 22:47:30.023998  3264 net.cpp:129] Top shape: 384 64 8 8 (1572864)
I0920 22:47:30.024003  3264 net.cpp:137] Memory required for data: 347483136
I0920 22:47:30.024029  3264 layer_factory.hpp:78] Creating layer prelu3
I0920 22:47:30.024056  3264 net.cpp:84] Creating Layer prelu3
I0920 22:47:30.024076  3264 net.cpp:406] prelu3 <- conv3
I0920 22:47:30.024103  3264 net.cpp:367] prelu3 -> conv3 (in-place)
I0920 22:47:30.024175  3264 net.cpp:122] Setting up prelu3
I0920 22:47:30.024183  3264 net.cpp:129] Top shape: 384 64 8 8 (1572864)
I0920 22:47:30.024200  3264 net.cpp:137] Memory required for data: 353774592
I0920 22:47:30.024215  3264 layer_factory.hpp:78] Creating layer pool3
I0920 22:47:30.024230  3264 net.cpp:84] Creating Layer pool3
I0920 22:47:30.024237  3264 net.cpp:406] pool3 <- conv3
I0920 22:47:30.024250  3264 net.cpp:380] pool3 -> pool3
I0920 22:47:30.024271  3264 net.cpp:122] Setting up pool3
I0920 22:47:30.024279  3264 net.cpp:129] Top shape: 384 64 4 4 (393216)
I0920 22:47:30.024283  3264 net.cpp:137] Memory required for data: 355347456
I0920 22:47:30.024288  3264 layer_factory.hpp:78] Creating layer conv4
I0920 22:47:30.024304  3264 net.cpp:84] Creating Layer conv4
I0920 22:47:30.024312  3264 net.cpp:406] conv4 <- pool3
I0920 22:47:30.024327  3264 net.cpp:380] conv4 -> conv4
I0920 22:47:30.026679  3264 cudnn_conv_layer.cpp:194] Reallocating workspace storage: 6840
I0920 22:47:30.026862  3264 net.cpp:122] Setting up conv4
I0920 22:47:30.026878  3264 net.cpp:129] Top shape: 384 128 3 3 (442368)
I0920 22:47:30.026885  3264 net.cpp:137] Memory required for data: 357116928
I0920 22:47:30.026909  3264 layer_factory.hpp:78] Creating layer prelu4
I0920 22:47:30.026929  3264 net.cpp:84] Creating Layer prelu4
I0920 22:47:30.026942  3264 net.cpp:406] prelu4 <- conv4
I0920 22:47:30.026983  3264 net.cpp:367] prelu4 -> conv4 (in-place)
I0920 22:47:30.027040  3264 net.cpp:122] Setting up prelu4
I0920 22:47:30.027050  3264 net.cpp:129] Top shape: 384 128 3 3 (442368)
I0920 22:47:30.027057  3264 net.cpp:137] Memory required for data: 358886400
I0920 22:47:30.027071  3264 layer_factory.hpp:78] Creating layer conv5
I0920 22:47:30.027098  3264 net.cpp:84] Creating Layer conv5
I0920 22:47:30.027109  3264 net.cpp:406] conv5 <- conv4
I0920 22:47:30.027132  3264 net.cpp:380] conv5 -> conv5
I0920 22:47:30.039780  3264 net.cpp:122] Setting up conv5
I0920 22:47:30.039813  3264 net.cpp:129] Top shape: 384 256 (98304)
I0920 22:47:30.039834  3264 net.cpp:137] Memory required for data: 359279616
I0920 22:47:30.039880  3264 layer_factory.hpp:78] Creating layer drop5
I0920 22:47:30.039923  3264 net.cpp:84] Creating Layer drop5
I0920 22:47:30.039937  3264 net.cpp:406] drop5 <- conv5
I0920 22:47:30.039959  3264 net.cpp:367] drop5 -> conv5 (in-place)
I0920 22:47:30.040001  3264 net.cpp:122] Setting up drop5
I0920 22:47:30.040009  3264 net.cpp:129] Top shape: 384 256 (98304)
I0920 22:47:30.040012  3264 net.cpp:137] Memory required for data: 359672832
I0920 22:47:30.040017  3264 layer_factory.hpp:78] Creating layer prelu5
I0920 22:47:30.040042  3264 net.cpp:84] Creating Layer prelu5
I0920 22:47:30.040050  3264 net.cpp:406] prelu5 <- conv5
I0920 22:47:30.040061  3264 net.cpp:367] prelu5 -> conv5 (in-place)
I0920 22:47:30.040094  3264 net.cpp:122] Setting up prelu5
I0920 22:47:30.040102  3264 net.cpp:129] Top shape: 384 256 (98304)
I0920 22:47:30.040105  3264 net.cpp:137] Memory required for data: 360066048
I0920 22:47:30.040117  3264 layer_factory.hpp:78] Creating layer conv5_prelu5_0_split
I0920 22:47:30.040135  3264 net.cpp:84] Creating Layer conv5_prelu5_0_split
I0920 22:47:30.040144  3264 net.cpp:406] conv5_prelu5_0_split <- conv5
I0920 22:47:30.040164  3264 net.cpp:380] conv5_prelu5_0_split -> conv5_prelu5_0_split_0
I0920 22:47:30.040190  3264 net.cpp:380] conv5_prelu5_0_split -> conv5_prelu5_0_split_1
I0920 22:47:30.040223  3264 net.cpp:380] conv5_prelu5_0_split -> conv5_prelu5_0_split_2
I0920 22:47:30.040246  3264 net.cpp:122] Setting up conv5_prelu5_0_split
I0920 22:47:30.040256  3264 net.cpp:129] Top shape: 384 256 (98304)
I0920 22:47:30.040263  3264 net.cpp:129] Top shape: 384 256 (98304)
I0920 22:47:30.040268  3264 net.cpp:129] Top shape: 384 256 (98304)
I0920 22:47:30.040271  3264 net.cpp:137] Memory required for data: 361245696
I0920 22:47:30.040278  3264 layer_factory.hpp:78] Creating layer conv6-1
I0920 22:47:30.040295  3264 net.cpp:84] Creating Layer conv6-1
I0920 22:47:30.040303  3264 net.cpp:406] conv6-1 <- conv5_prelu5_0_split_0
I0920 22:47:30.040320  3264 net.cpp:380] conv6-1 -> conv6-1
I0920 22:47:30.040418  3264 net.cpp:122] Setting up conv6-1
I0920 22:47:30.040450  3264 net.cpp:129] Top shape: 384 2 (768)
I0920 22:47:30.040457  3264 net.cpp:137] Memory required for data: 361248768
I0920 22:47:30.040483  3264 layer_factory.hpp:78] Creating layer cls_bridge
I0920 22:47:30.040518  3264 net.cpp:84] Creating Layer cls_bridge
I0920 22:47:30.040525  3264 net.cpp:406] cls_bridge <- conv6-1
I0920 22:47:30.040539  3264 net.cpp:406] cls_bridge <- label_PyData_1_split_0
I0920 22:47:30.040555  3264 net.cpp:380] cls_bridge -> conv6-1-valid
I0920 22:47:30.040572  3264 net.cpp:380] cls_bridge -> label-valid
I0920 22:47:30.040585  3264 often_mtcnn_classbridge_layer.cpp:17] Often Mtcnn Bridge.
I0920 22:47:30.040599  3264 net.cpp:122] Setting up cls_bridge
I0920 22:47:30.040606  3264 net.cpp:129] Top shape: 384 2 (768)
I0920 22:47:30.040612  3264 net.cpp:129] Top shape: 384 (384)
I0920 22:47:30.040616  3264 net.cpp:137] Memory required for data: 361253376
I0920 22:47:30.040627  3264 layer_factory.hpp:78] Creating layer conv6-1-valid_cls_bridge_0_split
I0920 22:47:30.040642  3264 net.cpp:84] Creating Layer conv6-1-valid_cls_bridge_0_split
I0920 22:47:30.040652  3264 net.cpp:406] conv6-1-valid_cls_bridge_0_split <- conv6-1-valid
I0920 22:47:30.040671  3264 net.cpp:380] conv6-1-valid_cls_bridge_0_split -> conv6-1-valid_cls_bridge_0_split_0
I0920 22:47:30.040714  3264 net.cpp:380] conv6-1-valid_cls_bridge_0_split -> conv6-1-valid_cls_bridge_0_split_1
I0920 22:47:30.040735  3264 net.cpp:122] Setting up conv6-1-valid_cls_bridge_0_split
I0920 22:47:30.040742  3264 net.cpp:129] Top shape: 384 2 (768)
I0920 22:47:30.040748  3264 net.cpp:129] Top shape: 384 2 (768)
I0920 22:47:30.040752  3264 net.cpp:137] Memory required for data: 361259520
I0920 22:47:30.040760  3264 layer_factory.hpp:78] Creating layer label-valid_cls_bridge_1_split
I0920 22:47:30.040771  3264 net.cpp:84] Creating Layer label-valid_cls_bridge_1_split
I0920 22:47:30.040777  3264 net.cpp:406] label-valid_cls_bridge_1_split <- label-valid
I0920 22:47:30.040792  3264 net.cpp:380] label-valid_cls_bridge_1_split -> label-valid_cls_bridge_1_split_0
I0920 22:47:30.040810  3264 net.cpp:380] label-valid_cls_bridge_1_split -> label-valid_cls_bridge_1_split_1
I0920 22:47:30.040828  3264 net.cpp:122] Setting up label-valid_cls_bridge_1_split
I0920 22:47:30.040837  3264 net.cpp:129] Top shape: 384 (384)
I0920 22:47:30.040843  3264 net.cpp:129] Top shape: 384 (384)
I0920 22:47:30.040846  3264 net.cpp:137] Memory required for data: 361262592
I0920 22:47:30.040853  3264 layer_factory.hpp:78] Creating layer cls_loss
I0920 22:47:30.040876  3264 net.cpp:84] Creating Layer cls_loss
I0920 22:47:30.040887  3264 net.cpp:406] cls_loss <- conv6-1-valid_cls_bridge_0_split_0
I0920 22:47:30.040901  3264 net.cpp:406] cls_loss <- label-valid_cls_bridge_1_split_0
I0920 22:47:30.040917  3264 net.cpp:380] cls_loss -> cls_loss
…
I0921 19:35:45.000428  3264 sgd_solver.cpp:112] Iteration 15600, lr = 0.01
I0921 19:38:32.950286  3264 solver.cpp:464] Snapshotting to binary proto file ../tmp/model/onet/0920/solver_iter_15636.caffemodel
I0921 19:38:32.950418  3264 net.cpp:842] Serializing 27 layers
I0921 19:38:32.966001  3264 sgd_solver.cpp:284] Snapshotting solver state to binary proto file ../tmp/model/onet/0920/solver_iter_15636.solverstate
I0921 19:38:32.968122  3264 solver.cpp:311] Optimization stopped early.
I0921 19:38:32.996865  3264 caffe.cpp:253] Optimization Done.
ate_down: false
}
layer {
  name: "cls_loss"
  type: "OftenMtcnnSoftmaxLoss"
  bottom: "conv6-1-valid"
  bottom: "label-valid"
  top: "cls_loss"
  propagate_down: true
  propagate_down: false
}
layer {
  name: "cls_Acc"
  type: "OftenMtcnnAccuracy"
  bottom: "conv6-1-valid"
  bottom: "label-valid"
  top: "cls_Acc"
  include {
    phase: TRAIN
  }
}
layer {
  name: "conv6-2"
  type: "InnerProduct"
  bottom: "conv5"
  top: "conv6-2"
  param {
    lr_mult: 1
    decay_mult: 1
  }
  param {
    lr_mult: 2
    decay_mult: 1
  }
  inner_product_param {
    num_output: 4
    weight_filler {
      type: "xavier"
    }
    bias_filler {
      type: "constant"
      value: 0
    }
  }
}
layer {
  name: "bbox_loss"
  type: "OftenMtcnnEuclideanLoss"
  bottom: "conv6-2"
  bottom: "bbox"
  bottom: "label"
  top: "bbox_loss"
  loss_weight: 0.5
  propagate_down: true
  propagate_down: false
  propagate_down: false
}
layer {
  name: "conv6-3"
  type: "InnerProduct"
  bottom: "conv5"
  top: "conv6-3"
  param {
    lr_mult: 1
    decay_mult: 1
  }
  param {
    lr_mult: 2
    decay_mult: 1
  }
  inner_product_param {
    num_output: 10
    weight_filler {
      type: "xavier"
    }
    bias_filler {
      type: "constant"
      value: 0
    }
  }
}
layer {
  name: "landmark_loss"
  type: "OftenMtcnnLandMarkLoss"
  bottom: "conv6-3"
  bottom: "landmark"
  bottom: "label"
  top: "landmark_loss"
  loss_weight: 1
  propagate_down: true
  propagate_down: false
  propagate_down: false
}
I0920 22:47:28.733198  3264 layer_factory.hpp:78] Creating layer PyData
I0920 22:47:29.488750  3264 net.cpp:84] Creating Layer PyData
I0920 22:47:29.488795  3264 net.cpp:380] PyData -> data
I0920 22:47:29.488952  3264 net.cpp:380] PyData -> label
I0920 22:47:29.488991  3264 net.cpp:380] PyData -> bbox
…
