…
stepvalue: 20000
stepvalue: 50000
stepvalue: 90000
stepvalue: 140000
I0922 09:34:30.961007  8748 solver.cpp:102] Creating training net from net file: train_onet.prototxt
I0922 09:34:30.970283  8748 net.cpp:51] Initializing net from parameters: 
name: "ONet"
state {
  phase: TRAIN
  level: 0
  stage: ""
}
layer {
  name: "PyData"
  type: "Python"
  top: "data"
  top: "label"
  top: "bbox"
  top: "landmark"
  python_param {
    module: "pydata_layer_multidb"
    layer: "MtcnnDataLayer"
    param_str: "{\'batch_size\': 384, \'net_type\': \'onet\'}"
  }
}
layer {
  name: "conv1"
  type: "Convolution"
  bottom: "data"
  top: "conv1"
  param {
    lr_mult: 1
    decay_mult: 1
  }
  param {
    lr_mult: 2
    decay_mult: 1
  }
  convolution_param {
    num_output: 32
    kernel_size: 3
    stride: 1
    weight_filler {
      type: "xavier"
    }
    bias_filler {
      type: "constant"
      value: 0
    }
  }
}
layer {
  name: "prelu1"
  type: "PReLU"
  bottom: "conv1"
  top: "conv1"
}
layer {
  name: "pool1"
  type: "Pooling"
  bottom: "conv1"
  top: "pool1"
  pooling_param {
    pool: MAX
    kernel_size: 3
    stride: 2
  }
}
layer {
  name: "conv2"
  type: "Convolution"
  bottom: "pool1"
  top: "conv2"
  param {
    lr_mult: 1
    decay_mult: 1
  }
  param {
    lr_mult: 2
    decay_mult: 1
  }
  convolution_param {
    num_output: 64
    kernel_size: 3
    stride: 1
    weight_filler {
      type: "xavier"
    }
    bias_filler {
      type: "constant"
      value: 0
    }
  }
}
layer {
  name: "prelu2"
  type: "PReLU"
  bottom: "conv2"
  top: "conv2"
}
layer {
  name: "pool2"
  type: "Pooling"
  bottom: "conv2"
  top: "pool2"
  pooling_param {
    pool: MAX
    kernel_size: 3
    stride: 2
  }
}
layer {
  name: "conv3"
  type: "Convolution"
  bottom: "pool2"
  top: "conv3"
  param {
    lr_mult: 1
    decay_mult: 1
  }
  param {
    lr_mult: 2
    decay_mult: 1
  }
  convolution_param {
    num_output: 64
    kernel_size: 3
    weight_filler {
      type: "xavier"
    }
    bias_filler {
      type: "constant"
      value: 0
    }
  }
}
layer {
  name: "prelu3"
  type: "PReLU"
  bottom: "conv3"
  top: "conv3"
}
layer {
  name: "pool3"
  type: "Pooling"
  bottom: "conv3"
  top: "pool3"
  pooling_param {
    pool: MAX
    kernel_size: 2
    stride: 2
  }
}
layer {
  name: "conv4"
  type: "Convolution"
  bottom: "pool3"
  top: "conv4"
  param {
    lr_mult: 1
    decay_mult: 1
  }
  param {
    lr_mult: 2
    decay_mult: 1
  }
  convolution_param {
    num_output: 128
    kernel_size: 2
    weight_filler {
      type: "xavier"
    }
    bias_filler {
      type: "constant"
      value: 0
    }
  }
}
layer {
  name: "prelu4"
  type: "PReLU"
  bottom: "conv4"
  top: "conv4"
}
layer {
  name: "conv5"
  type: "InnerProduct"
  bottom: "conv4"
  top: "conv5"
  param {
    lr_mult: 1
    decay_mult: 1
  }
  param {
    lr_mult: 2
    decay_mult: 1
  }
  inner_product_param {
    num_output: 256
    weight_filler {
      type: "xavier"
    }
    bias_filler {
      type: "constant"
      value: 0
    }
  }
}
layer {
  name: "drop5"
  type: "Dropout"
  bottom: "conv5"
  top: "conv5"
  dropout_param {
    dropout_ratio: 0.25
  }
}
layer {
  name: "prelu5"
  type: "PReLU"
  bottom: "conv5"
  top: "conv5"
}
layer {
  name: "conv6-1"
  type: "InnerProduct"
  bottom: "conv5"
  top: "conv6-1"
  param {
    lr_mult: 1
    decay_mult: 1
  }
  param {
    lr_mult: 2
    decay_mult: 1
  }
  inner_product_param {
    num_output: 2
    weight_filler {
      type: "xavier"
    }
    bias_filler {
      type: "constant"
      value: 0
    }
  }
}
layer {
  name: "cls_bridge"
  type: "OftenMtcnnClassBridge"
  bottom: "conv6-1"
  bottom: "label"
  top: "conv6-1-valid"
  top: "label-valid"
  propagate_down: true
  propagate_down: false
}
layer {
  name: "cls_loss"
  type: "OftenMtcnnSoftmaxLoss"
  bottom: "conv6-1-valid"
  bottom: "label-valid"
  top: "cls_loss"
  propagate_down: true
  propagate_down: false
}
layer {
  name: "cls_Acc"
  type: "OftenMtcnnAccuracy"
  bottom: "conv6-1-valid"
  bottom: "label-valid"
  top: "cls_Acc"
  include {
    phase: TRAIN
  }
}
layer {
  name: "conv6-2"
  type: "InnerProduct"
  bottom: "conv5"
  top: "conv6-2"
  param {
    lr_mult: 1
    decay_mult: 1
  }
  param {
    lr_mult: 2
    decay_mult: 1
  }
  inner_product_param {
    num_output: 4
    weight_filler {
      type: "xavier"
    }
    bias_filler {
      type: "constant"
      value: 0
    }
  }
}
layer {
  name: "bbox_loss"
  type: "OftenMtcnnEuclideanLoss"
  bottom: "conv6-2"
  bottom: "bbox"
  bottom: "label"
  top: "bbox_loss"
  loss_weight: 0.5
  propagate_down: true
  propagate_down: false
  propagate_down: false
}
layer {
  name: "conv6-3"
  type: "InnerProduct"
  bottom: "conv5"
  top: "conv6-3"
  param {
    lr_mult: 1
    decay_mult: 1
  }
  param {
    lr_mult: 2
    decay_mult: 1
  }
  inner_product_param {
    num_output: 10
    weight_filler {
      type: "xavier"
    }
    bias_filler {
      type: "constant"
      value: 0
    }
  }
}
layer {
  name: "landmark_loss"
  type: "OftenMtcnnLandMarkLoss"
  bottom: "conv6-3"
  bottom: "landmark"
  bottom: "label"
  top: "landmark_loss"
  loss_weight: 1
  propagate_down: true
  propagate_down: false
  propagate_down: false
}
I0922 09:34:30.970904  8748 layer_factory.hpp:78] Creating layer PyData
I0922 09:34:37.167114  8748 net.cpp:84] Creating Layer PyData
I0922 09:34:37.167174  8748 net.cpp:380] PyData -> data
I0922 09:34:37.167373  8748 net.cpp:380] PyData -> label
I0922 09:34:37.167433  8748 net.cpp:380] PyData -> bbox
I0922 09:34:37.167467  8748 net.cpp:380] PyData -> landmark
db_size[0]=674070 db_size[1]=167282 db_size[2]=289289 db_size[3]=185935
neg=674070 pos=167282 part=289289 landmark=185935
neg_data_size[0]=164 pos_data_size[1]=55 part_data_size[2]=55 landmark_data_size[3]=110
/usr/lib/python3.5/importlib/_bootstrap.py:222: RuntimeWarning: numpy.dtype size changed, may indicate binary incompatibility. Expected 96, got 88
  return f(*args, **kwds)
/usr/lib/python3.5/importlib/_bootstrap.py:222: RuntimeWarning: numpy.dtype size changed, may indicate binary incompatibility. Expected 96, got 88
  return f(*args, **kwds)
I0922 09:34:37.459025  8748 net.cpp:122] Setting up PyData
I0922 09:34:37.459100  8748 net.cpp:129] Top shape: 384 3 48 48 (2654208)
I0922 09:34:37.459110  8748 net.cpp:129] Top shape: 384 (384)
I0922 09:34:37.459118  8748 net.cpp:129] Top shape: 384 4 (1536)
I0922 09:34:37.459130  8748 net.cpp:129] Top shape: 384 10 (3840)
I0922 09:34:37.459132  8748 net.cpp:137] Memory required for data: 10639872
I0922 09:34:37.459172  8748 layer_factory.hpp:78] Creating layer label_PyData_1_split
I0922 09:34:37.459239  8748 net.cpp:84] Creating Layer label_PyData_1_split
I0922 09:34:37.459259  8748 net.cpp:406] label_PyData_1_split <- label
I0922 09:34:37.459321  8748 net.cpp:380] label_PyData_1_split -> label_PyData_1_split_0
I0922 09:34:37.459355  8748 net.cpp:380] label_PyData_1_split -> label_PyData_1_split_1
I0922 09:34:37.459378  8748 net.cpp:380] label_PyData_1_split -> label_PyData_1_split_2
I0922 09:34:37.459442  8748 net.cpp:122] Setting up label_PyData_1_split
I0922 09:34:37.459452  8748 net.cpp:129] Top shape: 384 (384)
I0922 09:34:37.459458  8748 net.cpp:129] Top shape: 384 (384)
I0922 09:34:37.459465  8748 net.cpp:129] Top shape: 384 (384)
I0922 09:34:37.459468  8748 net.cpp:137] Memory required for data: 10644480
I0922 09:34:37.459476  8748 layer_factory.hpp:78] Creating layer conv1
I0922 09:34:37.459524  8748 net.cpp:84] Creating Layer conv1
I0922 09:34:37.459533  8748 net.cpp:406] conv1 <- data
I0922 09:34:37.459551  8748 net.cpp:380] conv1 -> conv1
I0922 09:34:52.729676  8748 cudnn_conv_layer.cpp:194] Reallocating workspace storage: 207012
I0922 09:34:52.730229  8748 net.cpp:122] Setting up conv1
I0922 09:34:52.730291  8748 net.cpp:129] Top shape: 384 32 46 46 (26001408)
I0922 09:34:52.730307  8748 net.cpp:137] Memory required for data: 114650112
I0922 09:34:52.730551  8748 layer_factory.hpp:78] Creating layer prelu1
I0922 09:34:52.730644  8748 net.cpp:84] Creating Layer prelu1
I0922 09:34:52.730687  8748 net.cpp:406] prelu1 <- conv1
I0922 09:34:52.730767  8748 net.cpp:367] prelu1 -> conv1 (in-place)
I0922 09:34:52.733958  8748 net.cpp:122] Setting up prelu1
I0922 09:34:52.734057  8748 net.cpp:129] Top shape: 384 32 46 46 (26001408)
I0922 09:34:52.734076  8748 net.cpp:137] Memory required for data: 218655744
I0922 09:34:52.734174  8748 layer_factory.hpp:78] Creating layer pool1
I0922 09:34:52.734284  8748 net.cpp:84] Creating Layer pool1
I0922 09:34:52.734320  8748 net.cpp:406] pool1 <- conv1
I0922 09:34:52.734396  8748 net.cpp:380] pool1 -> pool1
I0922 09:34:52.734678  8748 net.cpp:122] Setting up pool1
I0922 09:34:52.734724  8748 net.cpp:129] Top shape: 384 32 23 23 (6500352)
I0922 09:34:52.734742  8748 net.cpp:137] Memory required for data: 244657152
I0922 09:34:52.734789  8748 layer_factory.hpp:78] Creating layer conv2
I0922 09:34:52.734879  8748 net.cpp:84] Creating Layer conv2
I0922 09:34:52.734911  8748 net.cpp:406] conv2 <- pool1
I0922 09:34:52.735031  8748 net.cpp:380] conv2 -> conv2
I0922 09:34:52.758991  8748 cudnn_conv_layer.cpp:194] Reallocating workspace storage: 615168
I0922 09:34:52.759248  8748 net.cpp:122] Setting up conv2
I0922 09:34:52.759269  8748 net.cpp:129] Top shape: 384 64 21 21 (10838016)
I0922 09:34:52.759274  8748 net.cpp:137] Memory required for data: 288009216
I0922 09:34:52.759321  8748 layer_factory.hpp:78] Creating layer prelu2
I0922 09:34:52.759351  8748 net.cpp:84] Creating Layer prelu2
I0922 09:34:52.759361  8748 net.cpp:406] prelu2 <- conv2
I0922 09:34:52.759377  8748 net.cpp:367] prelu2 -> conv2 (in-place)
I0922 09:34:52.759551  8748 net.cpp:122] Setting up prelu2
I0922 09:34:52.759558  8748 net.cpp:129] Top shape: 384 64 21 21 (10838016)
I0922 09:34:52.759562  8748 net.cpp:137] Memory required for data: 331361280
I0922 09:34:52.759569  8748 layer_factory.hpp:78] Creating layer pool2
I0922 09:34:52.759583  8748 net.cpp:84] Creating Layer pool2
I0922 09:34:52.759589  8748 net.cpp:406] pool2 <- conv2
I0922 09:34:52.759601  8748 net.cpp:380] pool2 -> pool2
I0922 09:34:52.759647  8748 net.cpp:122] Setting up pool2
I0922 09:34:52.759656  8748 net.cpp:129] Top shape: 384 64 10 10 (2457600)
I0922 09:34:52.759660  8748 net.cpp:137] Memory required for data: 341191680
I0922 09:34:52.759665  8748 layer_factory.hpp:78] Creating layer conv3
I0922 09:34:52.759685  8748 net.cpp:84] Creating Layer conv3
I0922 09:34:52.759692  8748 net.cpp:406] conv3 <- pool2
I0922 09:34:52.759706  8748 net.cpp:380] conv3 -> conv3
I0922 09:34:52.761888  8748 cudnn_conv_layer.cpp:194] Reallocating workspace storage: 1229568
I0922 09:34:52.761907  8748 net.cpp:122] Setting up conv3
I0922 09:34:52.761915  8748 net.cpp:129] Top shape: 384 64 8 8 (1572864)
I0922 09:34:52.761919  8748 net.cpp:137] Memory required for data: 347483136
I0922 09:34:52.761934  8748 layer_factory.hpp:78] Creating layer prelu3
I0922 09:34:52.761947  8748 net.cpp:84] Creating Layer prelu3
I0922 09:34:52.761955  8748 net.cpp:406] prelu3 <- conv3
I0922 09:34:52.761967  8748 net.cpp:367] prelu3 -> conv3 (in-place)
I0922 09:34:52.762070  8748 net.cpp:122] Setting up prelu3
I0922 09:34:52.762079  8748 net.cpp:129] Top shape: 384 64 8 8 (1572864)
I0922 09:34:52.762081  8748 net.cpp:137] Memory required for data: 353774592
I0922 09:34:52.762096  8748 layer_factory.hpp:78] Creating layer pool3
I0922 09:34:52.762109  8748 net.cpp:84] Creating Layer pool3
I0922 09:34:52.762115  8748 net.cpp:406] pool3 <- conv3
I0922 09:34:52.762126  8748 net.cpp:380] pool3 -> pool3
I0922 09:34:52.762169  8748 net.cpp:122] Setting up pool3
I0922 09:34:52.762177  8748 net.cpp:129] Top shape: 384 64 4 4 (393216)
I0922 09:34:52.762181  8748 net.cpp:137] Memory required for data: 355347456
I0922 09:34:52.762185  8748 layer_factory.hpp:78] Creating layer conv4
I0922 09:34:52.762199  8748 net.cpp:84] Creating Layer conv4
I0922 09:34:52.762205  8748 net.cpp:406] conv4 <- pool3
I0922 09:34:52.762218  8748 net.cpp:380] conv4 -> conv4
I0922 09:34:52.764293  8748 cudnn_conv_layer.cpp:194] Reallocating workspace storage: 6840
I0922 09:34:52.764422  8748 net.cpp:122] Setting up conv4
I0922 09:34:52.764433  8748 net.cpp:129] Top shape: 384 128 3 3 (442368)
I0922 09:34:52.764436  8748 net.cpp:137] Memory required for data: 357116928
I0922 09:34:52.764468  8748 layer_factory.hpp:78] Creating layer prelu4
I0922 09:34:52.764482  8748 net.cpp:84] Creating Layer prelu4
I0922 09:34:52.764488  8748 net.cpp:406] prelu4 <- conv4
I0922 09:34:52.764500  8748 net.cpp:367] prelu4 -> conv4 (in-place)
I0922 09:34:52.764605  8748 net.cpp:122] Setting up prelu4
I0922 09:34:52.764612  8748 net.cpp:129] Top shape: 384 128 3 3 (442368)
I0922 09:34:52.764616  8748 net.cpp:137] Memory required for data: 358886400
I0922 09:34:52.764624  8748 layer_factory.hpp:78] Creating layer conv5
I0922 09:34:52.764647  8748 net.cpp:84] Creating Layer conv5
I0922 09:34:52.764652  8748 net.cpp:406] conv5 <- conv4
I0922 09:34:52.764667  8748 net.cpp:380] conv5 -> conv5
I0922 09:34:52.775877  8748 net.cpp:122] Setting up conv5
I0922 09:34:52.775903  8748 net.cpp:129] Top shape: 384 256 (98304)
I0922 09:34:52.775907  8748 net.cpp:137] Memory required for data: 359279616
I0922 09:34:52.775933  8748 layer_factory.hpp:78] Creating layer drop5
I0922 09:34:52.775974  8748 net.cpp:84] Creating Layer drop5
I0922 09:34:52.775987  8748 net.cpp:406] drop5 <- conv5
I0922 09:34:52.776007  8748 net.cpp:367] drop5 -> conv5 (in-place)
I0922 09:34:52.776051  8748 net.cpp:122] Setting up drop5
I0922 09:34:52.776057  8748 net.cpp:129] Top shape: 384 256 (98304)
I0922 09:34:52.776060  8748 net.cpp:137] Memory required for data: 359672832
I0922 09:34:52.776072  8748 layer_factory.hpp:78] Creating layer prelu5
I0922 09:34:52.776084  8748 net.cpp:84] Creating Layer prelu5
I0922 09:34:52.776091  8748 net.cpp:406] prelu5 <- conv5
I0922 09:34:52.776105  8748 net.cpp:367] prelu5 -> conv5 (in-place)
I0922 09:34:52.776226  8748 net.cpp:122] Setting up prelu5
I0922 09:34:52.776233  8748 net.cpp:129] Top shape: 384 256 (98304)
I0922 09:34:52.776237  8748 net.cpp:137] Memory required for data: 360066048
I0922 09:34:52.776248  8748 layer_factory.hpp:78] Creating layer conv5_prelu5_0_split
I0922 09:34:52.776269  8748 net.cpp:84] Creating Layer conv5_prelu5_0_split
I0922 09:34:52.776276  8748 net.cpp:406] conv5_prelu5_0_split <- conv5
I0922 09:34:52.776293  8748 net.cpp:380] conv5_prelu5_0_split -> conv5_prelu5_0_split_0
I0922 09:34:52.776314  8748 net.cpp:380] conv5_prelu5_0_split -> conv5_prelu5_0_split_1
I0922 09:34:52.776334  8748 net.cpp:380] conv5_prelu5_0_split -> conv5_prelu5_0_split_2
I0922 09:34:52.776386  8748 net.cpp:122] Setting up conv5_prelu5_0_split
I0922 09:34:52.776394  8748 net.cpp:129] Top shape: 384 256 (98304)
I0922 09:34:52.776401  8748 net.cpp:129] Top shape: 384 256 (98304)
I0922 09:34:52.776407  8748 net.cpp:129] Top shape: 384 256 (98304)
I0922 09:34:52.776412  8748 net.cpp:137] Memory required for data: 361245696
I0922 09:34:52.776417  8748 layer_factory.hpp:78] Creating layer conv6-1
I0922 09:34:52.776432  8748 net.cpp:84] Creating Layer conv6-1
I0922 09:34:52.776438  8748 net.cpp:406] conv6-1 <- conv5_prelu5_0_split_0
I0922 09:34:52.776455  8748 net.cpp:380] conv6-1 -> conv6-1
I0922 09:34:52.776581  8748 net.cpp:122] Setting up conv6-1
I0922 09:34:52.776589  8748 net.cpp:129] Top shape: 384 2 (768)
I0922 09:34:52.776593  8748 net.cpp:137] Memory required for data: 361248768
I0922 09:34:52.776616  8748 layer_factory.hpp:78] Creating layer cls_bridge
I0922 09:34:52.776634  8748 net.cpp:84] Creating Layer cls_bridge
I0922 09:34:52.776641  8748 net.cpp:406] cls_bridge <- conv6-1
I0922 09:34:52.776654  8748 net.cpp:406] cls_bridge <- label_PyData_1_split_0
I0922 09:34:52.776667  8748 net.cpp:380] cls_bridge -> conv6-1-valid
I0922 09:34:52.776684  8748 net.cpp:380] cls_bridge -> label-valid
I0922 09:34:52.776712  8748 often_mtcnn_classbridge_layer.cpp:17] Often Mtcnn Bridge.
I0922 09:34:52.776749  8748 net.cpp:122] Setting up cls_bridge
I0922 09:34:52.776757  8748 net.cpp:129] Top shape: 384 2 (768)
I0922 09:34:52.776764  8748 net.cpp:129] Top shape: 384 (384)
I0922 09:34:52.776767  8748 net.cpp:137] Memory required for data: 361253376
I0922 09:34:52.776777  8748 layer_factory.hpp:78] Creating layer conv6-1-valid_cls_bridge_0_split
I0922 09:34:52.776790  8748 net.cpp:84] Creating Layer conv6-1-valid_cls_bridge_0_split
I0922 09:34:52.776806  8748 net.cpp:406] conv6-1-valid_cls_bridge_0_split <- conv6-1-valid
I0922 09:34:52.776825  8748 net.cpp:380] conv6-1-valid_cls_bridge_0_split -> conv6-1-valid_cls_bridge_0_split_0
I0922 09:34:52.776842  8748 net.cpp:380] conv6-1-valid_cls_bridge_0_split -> conv6-1-valid_cls_bridge_0_split_1
I0922 09:34:52.776883  8748 net.cpp:122] Setting up conv6-1-valid_cls_bridge_0_split
I0922 09:34:52.776891  8748 net.cpp:129] Top shape: 384 2 (768)
I0922 09:34:52.776896  8748 net.cpp:129] Top shape: 384 2 (768)
I0922 09:34:52.776901  8748 net.cpp:137] Memory required for data: 361259520
I0922 09:34:52.776906  8748 layer_factory.hpp:78] Creating layer label-valid_cls_bridge_1_split
I0922 09:34:52.776918  8748 net.cpp:84] Creating Layer label-valid_cls_bridge_1_split
I0922 09:34:52.776924  8748 net.cpp:406] label-valid_cls_bridge_1_split <- label-valid
I0922 09:34:52.776938  8748 net.cpp:380] label-valid_cls_bridge_1_split -> label-valid_cls_bridge_1_split_0
I0922 09:34:52.776955  8748 net.cpp:380] label-valid_cls_bridge_1_split -> label-valid_cls_bridge_1_split_1
I0922 09:34:52.776993  8748 net.cpp:122] Setting up label-valid_cls_bridge_1_split
I0922 09:34:52.777001  8748 net.cpp:129] Top shape: 384 (384)
I0922 09:34:52.777006  8748 net.cpp:129] Top shape: 384 (384)
I0922 09:34:52.777011  8748 net.cpp:137] Memory required for data: 361262592
I0922 09:34:52.777016  8748 layer_factory.hpp:78] Creating layer cls_loss
I0922 09:34:52.777037  8748 net.cpp:84] Creating Layer cls_loss
I0922 09:34:52.777045  8748 net.cpp:406] cls_loss <- conv6-1-valid_cls_bridge_0_split_0
I0922 09:34:52.777057  8748 net.cpp:406] cls_loss <- label-valid_cls_bridge_1_split_0
I0922 09:34:52.777068  8748 net.cpp:380] cls_loss -> cls_loss
…
