…
stepvalue: 5000
stepvalue: 20000
stepvalue: 50000
stepvalue: 90000
stepvalue: 140000
I0921 23:01:20.997207  2659 solver.cpp:102] Creating training net from net file: train_rnet.prototxt
I0921 23:01:20.997735  2659 net.cpp:51] Initializing net from parameters: 
state {
  phase: TRAIN
  level: 0
  stage: ""
}
layer {
  name: "PyData"
  type: "Python"
  top: "data"
  top: "label"
  top: "bbox"
  top: "landmark"
  python_param {
    module: "pydata_layer_multidb"
    layer: "MtcnnDataLayer"
    param_str: "{\'batch_size\': 384, \'net_type\': \'rnet\'}"
  }
}
layer {
  name: "conv1"
  type: "Convolution"
  bottom: "data"
  top: "conv1"
  param {
    lr_mult: 1
    decay_mult: 1
  }
  param {
    lr_mult: 2
    decay_mult: 1
  }
  convolution_param {
    num_output: 28
    kernel_size: 3
    stride: 1
    weight_filler {
      type: "xavier"
    }
    bias_filler {
      type: "constant"
      value: 0
    }
  }
}
layer {
  name: "prelu1"
  type: "PReLU"
  bottom: "conv1"
  top: "conv1"
}
layer {
  name: "pool1"
  type: "Pooling"
  bottom: "conv1"
  top: "pool1"
  pooling_param {
    pool: MAX
    kernel_size: 3
    stride: 2
  }
}
layer {
  name: "conv2"
  type: "Convolution"
  bottom: "pool1"
  top: "conv2"
  param {
    lr_mult: 1
    decay_mult: 1
  }
  param {
    lr_mult: 2
    decay_mult: 1
  }
  convolution_param {
    num_output: 48
    kernel_size: 3
    stride: 1
    weight_filler {
      type: "xavier"
    }
    bias_filler {
      type: "constant"
      value: 0
    }
  }
}
layer {
  name: "prelu2"
  type: "PReLU"
  bottom: "conv2"
  top: "conv2"
}
layer {
  name: "pool2"
  type: "Pooling"
  bottom: "conv2"
  top: "pool2"
  pooling_param {
    pool: MAX
    kernel_size: 3
    stride: 2
  }
}
layer {
  name: "conv3"
  type: "Convolution"
  bottom: "pool2"
  top: "conv3"
  param {
    lr_mult: 1
    decay_mult: 1
  }
  param {
    lr_mult: 2
    decay_mult: 1
  }
  convolution_param {
    num_output: 64
    kernel_size: 2
    stride: 1
    weight_filler {
      type: "xavier"
    }
    bias_filler {
      type: "constant"
      value: 0
    }
  }
}
layer {
  name: "prelu3"
  type: "PReLU"
  bottom: "conv3"
  top: "conv3"
}
layer {
  name: "conv4"
  type: "InnerProduct"
  bottom: "conv3"
  top: "conv4"
  param {
    lr_mult: 1
    decay_mult: 1
  }
  param {
    lr_mult: 2
    decay_mult: 1
  }
  inner_product_param {
    num_output: 128
    weight_filler {
      type: "xavier"
    }
    bias_filler {
      type: "constant"
      value: 0
    }
  }
}
layer {
  name: "prelu4"
  type: "PReLU"
  bottom: "conv4"
  top: "conv4"
}
layer {
  name: "conv5-1"
  type: "InnerProduct"
  bottom: "conv4"
  top: "conv5-1"
  param {
    lr_mult: 1
    decay_mult: 1
  }
  param {
    lr_mult: 2
    decay_mult: 1
  }
  inner_product_param {
    num_output: 2
    weight_filler {
      type: "xavier"
    }
    bias_filler {
      type: "constant"
      value: 0
    }
  }
}
layer {
  name: "cls_bridge"
  type: "OftenMtcnnClassBridge"
  bottom: "conv5-1"
  bottom: "label"
  top: "conv5-1-valid"
  top: "label-valid"
  propagate_down: true
  propagate_down: false
}
layer {
  name: "cls_loss"
  type: "OftenMtcnnSoftmaxLoss"
  bottom: "conv5-1-valid"
  bottom: "label-valid"
  top: "cls_loss"
  propagate_down: true
  propagate_down: false
}
layer {
  name: "cls_Acc"
  type: "OftenMtcnnAccuracy"
  bottom: "conv5-1-valid"
  bottom: "label-valid"
  top: "cls_Acc"
  include {
    phase: TRAIN
  }
}
layer {
  name: "conv5-2"
  type: "InnerProduct"
  bottom: "conv4"
  top: "conv5-2"
  param {
    lr_mult: 1
    decay_mult: 1
  }
  param {
    lr_mult: 2
    decay_mult: 1
  }
  inner_product_param {
    num_output: 4
    weight_filler {
      type: "xavier"
    }
    bias_filler {
      type: "constant"
      value: 0
    }
  }
}
layer {
  name: "bbox_loss"
  type: "OftenMtcnnEuclideanLoss"
  bottom: "conv5-2"
  bottom: "bbox"
  bottom: "label"
  top: "bbox_loss"
  loss_weight: 0.5
  propagate_down: true
  propagate_down: false
  propagate_down: false
}
layer {
  name: "conv5-3"
  type: "InnerProduct"
  bottom: "conv4"
  top: "conv5-3"
  param {
    lr_mult: 1
    decay_mult: 1
  }
  param {
    lr_mult: 2
    decay_mult: 0
  }
  inner_product_param {
    num_output: 10
    weight_filler {
      type: "xavier"
    }
    bias_filler {
      type: "constant"
      value: 0
    }
  }
}
layer {
  name: "landmark_loss"
  type: "OftenMtcnnLandMarkLoss"
  bottom: "conv5-3"
  bottom: "landmark"
  bottom: "label"
  top: "landmark_loss"
  loss_weight: 1
  propagate_down: true
  propagate_down: false
  propagate_down: false
}
I0921 23:01:20.998216  2659 layer_factory.hpp:78] Creating layer PyData
I0921 23:01:21.696858  2659 net.cpp:84] Creating Layer PyData
I0921 23:01:21.696899  2659 net.cpp:380] PyData -> data
I0921 23:01:21.697038  2659 net.cpp:380] PyData -> label
I0921 23:01:21.697073  2659 net.cpp:380] PyData -> bbox
I0921 23:01:21.697093  2659 net.cpp:380] PyData -> landmark
db_size[0]=772410 db_size[1]=111925 db_size[2]=635380 db_size[3]=186878
neg=772410 pos=111925 part=635380 landmark=186878
neg_data_size[0]=164 pos_data_size[1]=55 part_data_size[2]=55 landmark_data_size[3]=110
/usr/lib/python3.5/importlib/_bootstrap.py:222: RuntimeWarning: numpy.dtype size changed, may indicate binary incompatibility. Expected 96, got 88
  return f(*args, **kwds)
/usr/lib/python3.5/importlib/_bootstrap.py:222: RuntimeWarning: numpy.dtype size changed, may indicate binary incompatibility. Expected 96, got 88
  return f(*args, **kwds)
I0921 23:01:21.712538  2659 net.cpp:122] Setting up PyData
I0921 23:01:21.712611  2659 net.cpp:129] Top shape: 384 3 24 24 (663552)
I0921 23:01:21.712621  2659 net.cpp:129] Top shape: 384 (384)
I0921 23:01:21.712630  2659 net.cpp:129] Top shape: 384 4 (1536)
I0921 23:01:21.712641  2659 net.cpp:129] Top shape: 384 10 (3840)
I0921 23:01:21.712646  2659 net.cpp:137] Memory required for data: 2677248
I0921 23:01:21.712683  2659 layer_factory.hpp:78] Creating layer label_PyData_1_split
I0921 23:01:21.712739  2659 net.cpp:84] Creating Layer label_PyData_1_split
I0921 23:01:21.712759  2659 net.cpp:406] label_PyData_1_split <- label
I0921 23:01:21.712815  2659 net.cpp:380] label_PyData_1_split -> label_PyData_1_split_0
I0921 23:01:21.712852  2659 net.cpp:380] label_PyData_1_split -> label_PyData_1_split_1
I0921 23:01:21.712872  2659 net.cpp:380] label_PyData_1_split -> label_PyData_1_split_2
I0921 23:01:21.712929  2659 net.cpp:122] Setting up label_PyData_1_split
I0921 23:01:21.712939  2659 net.cpp:129] Top shape: 384 (384)
I0921 23:01:21.712946  2659 net.cpp:129] Top shape: 384 (384)
I0921 23:01:21.712952  2659 net.cpp:129] Top shape: 384 (384)
I0921 23:01:21.712956  2659 net.cpp:137] Memory required for data: 2681856
I0921 23:01:21.712965  2659 layer_factory.hpp:78] Creating layer conv1
I0921 23:01:21.713007  2659 net.cpp:84] Creating Layer conv1
I0921 23:01:21.713016  2659 net.cpp:406] conv1 <- data
I0921 23:01:21.713037  2659 net.cpp:380] conv1 -> conv1
I0921 23:01:22.189584  2659 cudnn_conv_layer.cpp:194] Reallocating workspace storage: 205716
I0921 23:01:22.189735  2659 net.cpp:122] Setting up conv1
I0921 23:01:22.189764  2659 net.cpp:129] Top shape: 384 28 22 22 (5203968)
I0921 23:01:22.189767  2659 net.cpp:137] Memory required for data: 23497728
I0921 23:01:22.189883  2659 layer_factory.hpp:78] Creating layer prelu1
I0921 23:01:22.189954  2659 net.cpp:84] Creating Layer prelu1
I0921 23:01:22.189980  2659 net.cpp:406] prelu1 <- conv1
I0921 23:01:22.190048  2659 net.cpp:367] prelu1 -> conv1 (in-place)
I0921 23:01:22.190752  2659 net.cpp:122] Setting up prelu1
I0921 23:01:22.190763  2659 net.cpp:129] Top shape: 384 28 22 22 (5203968)
I0921 23:01:22.190768  2659 net.cpp:137] Memory required for data: 44313600
I0921 23:01:22.190788  2659 layer_factory.hpp:78] Creating layer pool1
I0921 23:01:22.190816  2659 net.cpp:84] Creating Layer pool1
I0921 23:01:22.190825  2659 net.cpp:406] pool1 <- conv1
I0921 23:01:22.190857  2659 net.cpp:380] pool1 -> pool1
I0921 23:01:22.191010  2659 net.cpp:122] Setting up pool1
I0921 23:01:22.191022  2659 net.cpp:129] Top shape: 384 28 11 11 (1300992)
I0921 23:01:22.191027  2659 net.cpp:137] Memory required for data: 49517568
I0921 23:01:22.191035  2659 layer_factory.hpp:78] Creating layer conv2
I0921 23:01:22.191056  2659 net.cpp:84] Creating Layer conv2
I0921 23:01:22.191102  2659 net.cpp:406] conv2 <- pool1
I0921 23:01:22.191121  2659 net.cpp:380] conv2 -> conv2
I0921 23:01:22.192420  2659 cudnn_conv_layer.cpp:194] Reallocating workspace storage: 538944
I0921 23:01:22.192585  2659 net.cpp:122] Setting up conv2
I0921 23:01:22.192600  2659 net.cpp:129] Top shape: 384 48 9 9 (1492992)
I0921 23:01:22.192605  2659 net.cpp:137] Memory required for data: 55489536
I0921 23:01:22.192673  2659 layer_factory.hpp:78] Creating layer prelu2
I0921 23:01:22.192694  2659 net.cpp:84] Creating Layer prelu2
I0921 23:01:22.192718  2659 net.cpp:406] prelu2 <- conv2
I0921 23:01:22.192749  2659 net.cpp:367] prelu2 -> conv2 (in-place)
I0921 23:01:22.193398  2659 net.cpp:122] Setting up prelu2
I0921 23:01:22.193408  2659 net.cpp:129] Top shape: 384 48 9 9 (1492992)
I0921 23:01:22.193413  2659 net.cpp:137] Memory required for data: 61461504
I0921 23:01:22.193430  2659 layer_factory.hpp:78] Creating layer pool2
I0921 23:01:22.193447  2659 net.cpp:84] Creating Layer pool2
I0921 23:01:22.193471  2659 net.cpp:406] pool2 <- conv2
I0921 23:01:22.193490  2659 net.cpp:380] pool2 -> pool2
I0921 23:01:22.193557  2659 net.cpp:122] Setting up pool2
I0921 23:01:22.193567  2659 net.cpp:129] Top shape: 384 48 4 4 (294912)
I0921 23:01:22.193572  2659 net.cpp:137] Memory required for data: 62641152
I0921 23:01:22.193593  2659 layer_factory.hpp:78] Creating layer conv3
I0921 23:01:22.193646  2659 net.cpp:84] Creating Layer conv3
I0921 23:01:22.193655  2659 net.cpp:406] conv3 <- pool2
I0921 23:01:22.193673  2659 net.cpp:380] conv3 -> conv3
I0921 23:01:22.194916  2659 cudnn_conv_layer.cpp:194] Reallocating workspace storage: 6840
I0921 23:01:22.195082  2659 net.cpp:122] Setting up conv3
I0921 23:01:22.195094  2659 net.cpp:129] Top shape: 384 64 3 3 (221184)
I0921 23:01:22.195101  2659 net.cpp:137] Memory required for data: 63525888
I0921 23:01:22.195132  2659 layer_factory.hpp:78] Creating layer prelu3
I0921 23:01:22.195147  2659 net.cpp:84] Creating Layer prelu3
I0921 23:01:22.195168  2659 net.cpp:406] prelu3 <- conv3
I0921 23:01:22.195185  2659 net.cpp:367] prelu3 -> conv3 (in-place)
I0921 23:01:22.195300  2659 net.cpp:122] Setting up prelu3
I0921 23:01:22.195309  2659 net.cpp:129] Top shape: 384 64 3 3 (221184)
I0921 23:01:22.195313  2659 net.cpp:137] Memory required for data: 64410624
I0921 23:01:22.195350  2659 layer_factory.hpp:78] Creating layer conv4
I0921 23:01:22.195389  2659 net.cpp:84] Creating Layer conv4
I0921 23:01:22.195396  2659 net.cpp:406] conv4 <- conv3
I0921 23:01:22.195413  2659 net.cpp:380] conv4 -> conv4
I0921 23:01:22.198760  2659 net.cpp:122] Setting up conv4
I0921 23:01:22.198774  2659 net.cpp:129] Top shape: 384 128 (49152)
I0921 23:01:22.198778  2659 net.cpp:137] Memory required for data: 64607232
I0921 23:01:22.198808  2659 layer_factory.hpp:78] Creating layer prelu4
I0921 23:01:22.198838  2659 net.cpp:84] Creating Layer prelu4
I0921 23:01:22.198848  2659 net.cpp:406] prelu4 <- conv4
I0921 23:01:22.198863  2659 net.cpp:367] prelu4 -> conv4 (in-place)
I0921 23:01:22.198987  2659 net.cpp:122] Setting up prelu4
I0921 23:01:22.198997  2659 net.cpp:129] Top shape: 384 128 (49152)
I0921 23:01:22.199000  2659 net.cpp:137] Memory required for data: 64803840
I0921 23:01:22.199040  2659 layer_factory.hpp:78] Creating layer conv4_prelu4_0_split
I0921 23:01:22.199055  2659 net.cpp:84] Creating Layer conv4_prelu4_0_split
I0921 23:01:22.199062  2659 net.cpp:406] conv4_prelu4_0_split <- conv4
I0921 23:01:22.199093  2659 net.cpp:380] conv4_prelu4_0_split -> conv4_prelu4_0_split_0
I0921 23:01:22.199113  2659 net.cpp:380] conv4_prelu4_0_split -> conv4_prelu4_0_split_1
I0921 23:01:22.199131  2659 net.cpp:380] conv4_prelu4_0_split -> conv4_prelu4_0_split_2
I0921 23:01:22.199183  2659 net.cpp:122] Setting up conv4_prelu4_0_split
I0921 23:01:22.199193  2659 net.cpp:129] Top shape: 384 128 (49152)
I0921 23:01:22.199213  2659 net.cpp:129] Top shape: 384 128 (49152)
I0921 23:01:22.199218  2659 net.cpp:129] Top shape: 384 128 (49152)
I0921 23:01:22.199237  2659 net.cpp:137] Memory required for data: 65393664
I0921 23:01:22.199254  2659 layer_factory.hpp:78] Creating layer conv5-1
I0921 23:01:22.199270  2659 net.cpp:84] Creating Layer conv5-1
I0921 23:01:22.199278  2659 net.cpp:406] conv5-1 <- conv4_prelu4_0_split_0
I0921 23:01:22.199309  2659 net.cpp:380] conv5-1 -> conv5-1
I0921 23:01:22.199439  2659 net.cpp:122] Setting up conv5-1
I0921 23:01:22.199450  2659 net.cpp:129] Top shape: 384 2 (768)
I0921 23:01:22.199455  2659 net.cpp:137] Memory required for data: 65396736
I0921 23:01:22.199486  2659 layer_factory.hpp:78] Creating layer cls_bridge
I0921 23:01:22.199506  2659 net.cpp:84] Creating Layer cls_bridge
I0921 23:01:22.199527  2659 net.cpp:406] cls_bridge <- conv5-1
I0921 23:01:22.199542  2659 net.cpp:406] cls_bridge <- label_PyData_1_split_0
I0921 23:01:22.199555  2659 net.cpp:380] cls_bridge -> conv5-1-valid
I0921 23:01:22.199575  2659 net.cpp:380] cls_bridge -> label-valid
I0921 23:01:22.199591  2659 often_mtcnn_classbridge_layer.cpp:17] Often Mtcnn Bridge.
I0921 23:01:22.199628  2659 net.cpp:122] Setting up cls_bridge
I0921 23:01:22.199637  2659 net.cpp:129] Top shape: 384 2 (768)
I0921 23:01:22.199643  2659 net.cpp:129] Top shape: 384 (384)
I0921 23:01:22.199648  2659 net.cpp:137] Memory required for data: 65401344
I0921 23:01:22.199654  2659 layer_factory.hpp:78] Creating layer conv5-1-valid_cls_bridge_0_split
I0921 23:01:22.199668  2659 net.cpp:84] Creating Layer conv5-1-valid_cls_bridge_0_split
I0921 23:01:22.199676  2659 net.cpp:406] conv5-1-valid_cls_bridge_0_split <- conv5-1-valid
I0921 23:01:22.199694  2659 net.cpp:380] conv5-1-valid_cls_bridge_0_split -> conv5-1-valid_cls_bridge_0_split_0
I0921 23:01:22.199713  2659 net.cpp:380] conv5-1-valid_cls_bridge_0_split -> conv5-1-valid_cls_bridge_0_split_1
I0921 23:01:22.199755  2659 net.cpp:122] Setting up conv5-1-valid_cls_bridge_0_split
I0921 23:01:22.199764  2659 net.cpp:129] Top shape: 384 2 (768)
I0921 23:01:22.199772  2659 net.cpp:129] Top shape: 384 2 (768)
I0921 23:01:22.199776  2659 net.cpp:137] Memory required for data: 65407488
I0921 23:01:22.199795  2659 layer_factory.hpp:78] Creating layer label-valid_cls_bridge_1_split
I0921 23:01:22.199839  2659 net.cpp:84] Creating Layer label-valid_cls_bridge_1_split
I0921 23:01:22.199847  2659 net.cpp:406] label-valid_cls_bridge_1_split <- label-valid
I0921 23:01:22.199864  2659 net.cpp:380] label-valid_cls_bridge_1_split -> label-valid_cls_bridge_1_split_0
I0921 23:01:22.199884  2659 net.cpp:380] label-valid_cls_bridge_1_split -> label-valid_cls_bridge_1_split_1
I0921 23:01:22.199925  2659 net.cpp:122] Setting up label-valid_cls_bridge_1_split
I0921 23:01:22.199934  2659 net.cpp:129] Top shape: 384 (384)
I0921 23:01:22.199954  2659 net.cpp:129] Top shape: 384 (384)
I0921 23:01:22.199959  2659 net.cpp:137] Memory required for data: 65410560
I0921 23:01:22.199968  2659 layer_factory.hpp:78] Creating layer cls_loss
I0921 23:01:22.199991  2659 net.cpp:84] Creating Layer cls_loss
I0921 23:01:22.200000  2659 net.cpp:406] cls_loss <- conv5-1-valid_cls_bridge_0_split_0
I0921 23:01:22.200013  2659 net.cpp:406] cls_loss <- label-valid_cls_bridge_1_split_0
I0921 23:01:22.200040  2659 net.cpp:380] cls_loss -> cls_loss
…
