…
stepvalue: 10000
stepvalue: 50000
stepvalue: 90000
stepvalue: 140000
I0926 21:13:15.148191 19703 solver.cpp:102] Creating training net from net file: train_pnet.prototxt
I0926 21:13:15.159242 19703 net.cpp:51] Initializing net from parameters: 
name: "mtcnn_pnet"
state {
  phase: TRAIN
  level: 0
  stage: ""
}
layer {
  name: "PyData"
  type: "Python"
  top: "data"
  top: "label"
  top: "bbox"
  top: "landmark"
  python_param {
    module: "pydata_layer"
    layer: "MtcnnDataLayer"
    param_str: "{\'batch_size\': 384, \'net_type\': \'pnet\'}"
  }
}
layer {
  name: "conv1"
  type: "Convolution"
  bottom: "data"
  top: "conv1"
  param {
    lr_mult: 1
  }
  param {
    lr_mult: 2
  }
  convolution_param {
    num_output: 10
    kernel_size: 3
    weight_filler {
      type: "gaussian"
      std: 0.0001
    }
    bias_filler {
      type: "constant"
    }
  }
}
layer {
  name: "PReLU1"
  type: "PReLU"
  bottom: "conv1"
  top: "conv1"
}
layer {
  name: "pool1"
  type: "Pooling"
  bottom: "conv1"
  top: "pool1"
  pooling_param {
    pool: MAX
    kernel_size: 2
    stride: 2
  }
}
layer {
  name: "conv2"
  type: "Convolution"
  bottom: "pool1"
  top: "conv2"
  param {
    lr_mult: 1
  }
  param {
    lr_mult: 2
  }
  convolution_param {
    num_output: 16
    kernel_size: 3
    weight_filler {
      type: "gaussian"
      std: 0.0001
    }
    bias_filler {
      type: "constant"
    }
  }
}
layer {
  name: "PReLU2"
  type: "PReLU"
  bottom: "conv2"
  top: "conv2"
}
layer {
  name: "conv3"
  type: "Convolution"
  bottom: "conv2"
  top: "conv3"
  param {
    lr_mult: 1
    decay_mult: 1
  }
  param {
    lr_mult: 2
    decay_mult: 0
  }
  convolution_param {
    num_output: 32
    kernel_size: 3
    stride: 1
    weight_filler {
      type: "xavier"
    }
    bias_filler {
      type: "constant"
      value: 0
    }
  }
}
layer {
  name: "PReLU3"
  type: "PReLU"
  bottom: "conv3"
  top: "conv3"
}
layer {
  name: "conv4-1"
  type: "Convolution"
  bottom: "conv3"
  top: "conv4-1"
  param {
    lr_mult: 1
    decay_mult: 1
  }
  param {
    lr_mult: 2
    decay_mult: 0
  }
  convolution_param {
    num_output: 2
    kernel_size: 1
    stride: 1
    weight_filler {
      type: "xavier"
    }
    bias_filler {
      type: "constant"
      value: 0
    }
  }
}
layer {
  name: "cls_bridge"
  type: "OftenMtcnnClassBridge"
  bottom: "conv4-1"
  bottom: "label"
  top: "conv4-1-valid"
  top: "label-valid"
  propagate_down: true
  propagate_down: false
}
layer {
  name: "cls_loss"
  type: "OftenMtcnnSoftmaxLoss"
  bottom: "conv4-1-valid"
  bottom: "label-valid"
  top: "cls_loss"
  propagate_down: true
  propagate_down: false
}
layer {
  name: "cls_Acc"
  type: "OftenMtcnnAccuracy"
  bottom: "conv4-1-valid"
  bottom: "label-valid"
  top: "cls_Acc"
  include {
    phase: TRAIN
  }
}
layer {
  name: "conv4-2"
  type: "Convolution"
  bottom: "conv3"
  top: "conv4-2"
  param {
    lr_mult: 1
    decay_mult: 1
  }
  param {
    lr_mult: 2
    decay_mult: 0
  }
  convolution_param {
    num_output: 4
    kernel_size: 1
    stride: 1
    weight_filler {
      type: "xavier"
    }
    bias_filler {
      type: "constant"
      value: 0
    }
  }
}
layer {
  name: "bbox_loss"
  type: "OftenMtcnnEuclideanLoss"
  bottom: "conv4-2"
  bottom: "bbox"
  bottom: "label"
  top: "bbox_loss"
  loss_weight: 0.5
  propagate_down: true
  propagate_down: false
  propagate_down: false
}
layer {
  name: "conv4-3"
  type: "Convolution"
  bottom: "conv3"
  top: "conv4-3"
  param {
    lr_mult: 1
    decay_mult: 1
  }
  param {
    lr_mult: 2
    decay_mult: 0
  }
  convolution_param {
    num_output: 10
    kernel_size: 1
    stride: 1
    weight_filler {
      type: "xavier"
    }
    bias_filler {
      type: "constant"
      value: 0
    }
  }
}
layer {
  name: "landmark_loss"
  type: "OftenMtcnnLandMarkLoss"
  bottom: "conv4-3"
  bottom: "landmark"
  bottom: "label"
  top: "landmark_loss"
  loss_weight: 0.5
  propagate_down: true
  propagate_down: false
  propagate_down: false
}
I0926 21:13:15.159915 19703 layer_factory.hpp:78] Creating layer PyData
I0926 21:13:22.677857 19703 net.cpp:84] Creating Layer PyData
I0926 21:13:22.677981 19703 net.cpp:380] PyData -> data
I0926 21:13:22.678395 19703 net.cpp:380] PyData -> label
I0926 21:13:22.678542 19703 net.cpp:380] PyData -> bbox
I0926 21:13:22.678633 19703 net.cpp:380] PyData -> landmark



==============================


============================




here start[0] = , end[0] = 



==============================


============================




/usr/lib/python3.5/importlib/_bootstrap.py:222: RuntimeWarning: numpy.dtype size changed, may indicate binary incompatibility. Expected 96, got 88
  return f(*args, **kwds)
/usr/lib/python3.5/importlib/_bootstrap.py:222: RuntimeWarning: numpy.dtype size changed, may indicate binary incompatibility. Expected 96, got 88
  return f(*args, **kwds)
I0926 21:13:22.780899 19703 net.cpp:122] Setting up PyData
I0926 21:13:22.781086 19703 net.cpp:129] Top shape: 384 3 12 12 (165888)
I0926 21:13:22.781121 19703 net.cpp:129] Top shape: 384 (384)
I0926 21:13:22.781141 19703 net.cpp:129] Top shape: 384 4 (1536)
I0926 21:13:22.781167 19703 net.cpp:129] Top shape: 384 10 (3840)
I0926 21:13:22.781178 19703 net.cpp:137] Memory required for data: 686592
I0926 21:13:22.781258 19703 layer_factory.hpp:78] Creating layer label_PyData_1_split
I0926 21:13:22.781388 19703 net.cpp:84] Creating Layer label_PyData_1_split
I0926 21:13:22.781440 19703 net.cpp:406] label_PyData_1_split <- label
I0926 21:13:22.781596 19703 net.cpp:380] label_PyData_1_split -> label_PyData_1_split_0
I0926 21:13:22.781738 19703 net.cpp:380] label_PyData_1_split -> label_PyData_1_split_1
I0926 21:13:22.781806 19703 net.cpp:380] label_PyData_1_split -> label_PyData_1_split_2
I0926 21:13:22.782017 19703 net.cpp:122] Setting up label_PyData_1_split
I0926 21:13:22.782054 19703 net.cpp:129] Top shape: 384 (384)
I0926 21:13:22.782073 19703 net.cpp:129] Top shape: 384 (384)
I0926 21:13:22.782094 19703 net.cpp:129] Top shape: 384 (384)
I0926 21:13:22.782104 19703 net.cpp:137] Memory required for data: 691200
I0926 21:13:22.782124 19703 layer_factory.hpp:78] Creating layer conv1
I0926 21:13:22.782254 19703 net.cpp:84] Creating Layer conv1
I0926 21:13:22.782289 19703 net.cpp:406] conv1 <- data
I0926 21:13:22.782351 19703 net.cpp:380] conv1 -> conv1
I0926 21:13:25.520184 19703 cudnn_conv_layer.cpp:194] Reallocating workspace storage: 101580
I0926 21:13:25.520781 19703 net.cpp:122] Setting up conv1
I0926 21:13:25.520849 19703 net.cpp:129] Top shape: 384 10 10 10 (384000)
I0926 21:13:25.520865 19703 net.cpp:137] Memory required for data: 2227200
I0926 21:13:25.521154 19703 layer_factory.hpp:78] Creating layer PReLU1
I0926 21:13:25.521268 19703 net.cpp:84] Creating Layer PReLU1
I0926 21:13:25.521311 19703 net.cpp:406] PReLU1 <- conv1
I0926 21:13:25.521399 19703 net.cpp:367] PReLU1 -> conv1 (in-place)
I0926 21:13:25.521926 19703 net.cpp:122] Setting up PReLU1
I0926 21:13:25.521963 19703 net.cpp:129] Top shape: 384 10 10 10 (384000)
I0926 21:13:25.521980 19703 net.cpp:137] Memory required for data: 3763200
I0926 21:13:25.522060 19703 layer_factory.hpp:78] Creating layer pool1
I0926 21:13:25.522167 19703 net.cpp:84] Creating Layer pool1
I0926 21:13:25.522199 19703 net.cpp:406] pool1 <- conv1
I0926 21:13:25.522259 19703 net.cpp:380] pool1 -> pool1
I0926 21:13:25.522536 19703 net.cpp:122] Setting up pool1
I0926 21:13:25.522579 19703 net.cpp:129] Top shape: 384 10 5 5 (96000)
I0926 21:13:25.522593 19703 net.cpp:137] Memory required for data: 4147200
I0926 21:13:25.522615 19703 layer_factory.hpp:78] Creating layer conv2
I0926 21:13:25.522707 19703 net.cpp:84] Creating Layer conv2
I0926 21:13:25.522748 19703 net.cpp:406] conv2 <- pool1
I0926 21:13:25.522837 19703 net.cpp:380] conv2 -> conv2
I0926 21:13:25.529042 19703 cudnn_conv_layer.cpp:194] Reallocating workspace storage: 115704
I0926 21:13:25.529105 19703 net.cpp:122] Setting up conv2
I0926 21:13:25.529131 19703 net.cpp:129] Top shape: 384 16 3 3 (55296)
I0926 21:13:25.529140 19703 net.cpp:137] Memory required for data: 4368384
I0926 21:13:25.529201 19703 layer_factory.hpp:78] Creating layer PReLU2
I0926 21:13:25.529248 19703 net.cpp:84] Creating Layer PReLU2
I0926 21:13:25.529312 19703 net.cpp:406] PReLU2 <- conv2
I0926 21:13:25.529355 19703 net.cpp:367] PReLU2 -> conv2 (in-place)
I0926 21:13:25.529633 19703 net.cpp:122] Setting up PReLU2
I0926 21:13:25.529655 19703 net.cpp:129] Top shape: 384 16 3 3 (55296)
I0926 21:13:25.529665 19703 net.cpp:137] Memory required for data: 4589568
I0926 21:13:25.529701 19703 layer_factory.hpp:78] Creating layer conv3
I0926 21:13:25.529750 19703 net.cpp:84] Creating Layer conv3
I0926 21:13:25.529770 19703 net.cpp:406] conv3 <- conv2
I0926 21:13:25.529812 19703 net.cpp:380] conv3 -> conv3
I0926 21:13:25.534008 19703 cudnn_conv_layer.cpp:194] Reallocating workspace storage: 252096
I0926 21:13:25.534052 19703 net.cpp:122] Setting up conv3
I0926 21:13:25.534070 19703 net.cpp:129] Top shape: 384 32 1 1 (12288)
I0926 21:13:25.534077 19703 net.cpp:137] Memory required for data: 4638720
I0926 21:13:25.534106 19703 layer_factory.hpp:78] Creating layer PReLU3
I0926 21:13:25.534142 19703 net.cpp:84] Creating Layer PReLU3
I0926 21:13:25.534157 19703 net.cpp:406] PReLU3 <- conv3
I0926 21:13:25.534185 19703 net.cpp:367] PReLU3 -> conv3 (in-place)
I0926 21:13:25.534395 19703 net.cpp:122] Setting up PReLU3
I0926 21:13:25.534412 19703 net.cpp:129] Top shape: 384 32 1 1 (12288)
I0926 21:13:25.534418 19703 net.cpp:137] Memory required for data: 4687872
I0926 21:13:25.534453 19703 layer_factory.hpp:78] Creating layer conv3_PReLU3_0_split
I0926 21:13:25.534482 19703 net.cpp:84] Creating Layer conv3_PReLU3_0_split
I0926 21:13:25.534495 19703 net.cpp:406] conv3_PReLU3_0_split <- conv3
I0926 21:13:25.534533 19703 net.cpp:380] conv3_PReLU3_0_split -> conv3_PReLU3_0_split_0
I0926 21:13:25.534590 19703 net.cpp:380] conv3_PReLU3_0_split -> conv3_PReLU3_0_split_1
I0926 21:13:25.534642 19703 net.cpp:380] conv3_PReLU3_0_split -> conv3_PReLU3_0_split_2
I0926 21:13:25.534798 19703 net.cpp:122] Setting up conv3_PReLU3_0_split
I0926 21:13:25.534822 19703 net.cpp:129] Top shape: 384 32 1 1 (12288)
I0926 21:13:25.534838 19703 net.cpp:129] Top shape: 384 32 1 1 (12288)
I0926 21:13:25.534852 19703 net.cpp:129] Top shape: 384 32 1 1 (12288)
I0926 21:13:25.534862 19703 net.cpp:137] Memory required for data: 4835328
I0926 21:13:25.534885 19703 layer_factory.hpp:78] Creating layer conv4-1
I0926 21:13:25.534957 19703 net.cpp:84] Creating Layer conv4-1
I0926 21:13:25.534982 19703 net.cpp:406] conv4-1 <- conv3_PReLU3_0_split_0
I0926 21:13:25.535037 19703 net.cpp:380] conv4-1 -> conv4-1
I0926 21:13:25.537096 19703 cudnn_conv_layer.cpp:194] Reallocating workspace storage: 5354208
I0926 21:13:25.537413 19703 net.cpp:122] Setting up conv4-1
I0926 21:13:25.537438 19703 net.cpp:129] Top shape: 384 2 1 1 (768)
I0926 21:13:25.537449 19703 net.cpp:137] Memory required for data: 4838400
I0926 21:13:25.537492 19703 layer_factory.hpp:78] Creating layer cls_bridge
I0926 21:13:25.537544 19703 net.cpp:84] Creating Layer cls_bridge
I0926 21:13:25.537569 19703 net.cpp:406] cls_bridge <- conv4-1
I0926 21:13:25.537611 19703 net.cpp:406] cls_bridge <- label_PyData_1_split_0
I0926 21:13:25.537657 19703 net.cpp:380] cls_bridge -> conv4-1-valid
I0926 21:13:25.537720 19703 net.cpp:380] cls_bridge -> label-valid
I0926 21:13:25.537776 19703 often_mtcnn_classbridge_layer.cpp:17] Often Mtcnn Bridge.
I0926 21:13:25.537907 19703 net.cpp:122] Setting up cls_bridge
I0926 21:13:25.537931 19703 net.cpp:129] Top shape: 384 2 1 1 (768)
I0926 21:13:25.537947 19703 net.cpp:129] Top shape: 384 (384)
I0926 21:13:25.537957 19703 net.cpp:137] Memory required for data: 4843008
I0926 21:13:25.537974 19703 layer_factory.hpp:78] Creating layer conv4-1-valid_cls_bridge_0_split
I0926 21:13:25.538017 19703 net.cpp:84] Creating Layer conv4-1-valid_cls_bridge_0_split
I0926 21:13:25.538036 19703 net.cpp:406] conv4-1-valid_cls_bridge_0_split <- conv4-1-valid
I0926 21:13:25.538075 19703 net.cpp:380] conv4-1-valid_cls_bridge_0_split -> conv4-1-valid_cls_bridge_0_split_0
I0926 21:13:25.538125 19703 net.cpp:380] conv4-1-valid_cls_bridge_0_split -> conv4-1-valid_cls_bridge_0_split_1
I0926 21:13:25.538231 19703 net.cpp:122] Setting up conv4-1-valid_cls_bridge_0_split
I0926 21:13:25.538265 19703 net.cpp:129] Top shape: 384 2 1 1 (768)
I0926 21:13:25.538277 19703 net.cpp:129] Top shape: 384 2 1 1 (768)
I0926 21:13:25.538285 19703 net.cpp:137] Memory required for data: 4849152
I0926 21:13:25.538300 19703 layer_factory.hpp:78] Creating layer label-valid_cls_bridge_1_split
I0926 21:13:25.538328 19703 net.cpp:84] Creating Layer label-valid_cls_bridge_1_split
I0926 21:13:25.538347 19703 net.cpp:406] label-valid_cls_bridge_1_split <- label-valid
I0926 21:13:25.538386 19703 net.cpp:380] label-valid_cls_bridge_1_split -> label-valid_cls_bridge_1_split_0
I0926 21:13:25.538434 19703 net.cpp:380] label-valid_cls_bridge_1_split -> label-valid_cls_bridge_1_split_1
I0926 21:13:25.538537 19703 net.cpp:122] Setting up label-valid_cls_bridge_1_split
I0926 21:13:25.538553 19703 net.cpp:129] Top shape: 384 (384)
I0926 21:13:25.538564 19703 net.cpp:129] Top shape: 384 (384)
I0926 21:13:25.538574 19703 net.cpp:137] Memory required for data: 4852224
I0926 21:13:25.538595 19703 layer_factory.hpp:78] Creating layer cls_loss
I0926 21:13:25.538646 19703 net.cpp:84] Creating Layer cls_loss
I0926 21:13:25.538666 19703 net.cpp:406] cls_loss <- conv4-1-valid_cls_bridge_0_split_0
I0926 21:13:25.538697 19703 net.cpp:406] cls_loss <- label-valid_cls_bridge_1_split_0
I0926 21:13:25.538733 19703 net.cpp:380] cls_loss -> cls_loss
…
